…
    (dense_residual): Dense(40 -> 1, linear)
  )
  (embedder): FeatureEmbedder(
  
  )
  (scaler): MeanScaler(
  
  )
), 'batch_size': 32, 'input_transform': <gluonts.transform._base.Chain object at 0x7fdacda36850>, 'forecast_generator': gluonts.model.forecast_generator.SampleForecastGenerator(), 'output_transform': None, 'ctx': cpu(0), 'dtype': <class 'numpy.float32'>}"
lstm,"Model: ""sequential""
_________________________________________________________________
 Layer (type)                Output Shape              Param #   
=================================================================
 lstm (LSTM)                 (None, 10, 75)            23100     
                                                                 
 lstm_1 (LSTM)               (None, 10, 75)            45300     
                                                                 
 lstm_2 (LSTM)               (None, 75)                45300     
                                                                 
 dense (Dense)               (None, 1)                 76        
                                                                 
=================================================================
Total params: 113,776
Trainable params: 113,776
Non-trainable params: 0
_________________________________________________________________
","Model: ""sequential""
_________________________________________________________________
 Layer (type)                Output Shape              Param #   
=================================================================
 lstm (LSTM)                 (None, 10, 75)            23100     
                                                                 
 lstm_1 (LSTM)               (None, 10, 75)            45300     
                                                                 
 lstm_2 (LSTM)               (None, 75)                45300     
                                                                 
 dense (Dense)               (None, 1)                 76        
                                                                 
=================================================================
Total params: 113,776
Trainable params: 113,776
Non-trainable params: 0
_________________________________________________________________
Model: ""sequential_4""
_________________________________________________________________
 Layer (type)                Output Shape              Param #   
=================================================================
 lstm_24 (LSTM)              (None, 20, 50)            10400     
                                                                 
 lstm_25 (LSTM)              (None, 20, 50)            20200     
                                                                 
 lstm_26 (LSTM)              (None, 50)                20200     
                                                                 
 dense_4 (Dense)             (None, 1)                 51        
                                                                 
=================================================================
Total params: 50,851
Trainable params: 50,851
Non-trainable params: 0
_________________________________________________________________
","Model: ""sequential""
_________________________________________________________________
 Layer (type)                Output Shape              Param #   
=================================================================
 lstm (LSTM)                 (None, 10, 75)            23100     
                                                                 
 lstm_1 (LSTM)               (None, 10, 75)            45300     
                                                                 
 lstm_2 (LSTM)               (None, 75)                45300     
                                                                 
 dense (Dense)               (None, 1)                 76        
                                                                 
=================================================================
Total params: 113,776
Trainable params: 113,776
Non-trainable params: 0
_________________________________________________________________
Model: ""sequential_4""
_________________________________________________________________
 Layer (type)                Output Shape              Param #   
=================================================================
 lstm_24 (LSTM)              (None, 20, 50)            10400     
                                                                 
 lstm_25 (LSTM)              (None, 20, 50)            20200     
                                                                 
 lstm_26 (LSTM)              (None, 50)                20200     
                                                                 
 dense_4 (Dense)             (None, 1)                 51        
                                                                 
=================================================================
Total params: 50,851
Trainable params: 50,851
Non-trainable params: 0
_________________________________________________________________
Model: ""sequential_8""
_________________________________________________________________
 Layer (type)                Output Shape              Param #   
=================================================================
 lstm_42 (LSTM)              (None, 30, 75)            23100     
                                                                 
 lstm_43 (LSTM)              (None, 30, 75)            45300     
                                                                 
 lstm_44 (LSTM)              (None, 75)                45300     
                                                                 
 dense_8 (Dense)             (None, 1)                 76        
                                                                 
=================================================================
Total params: 113,776
Trainable params: 113,776
Non-trainable params: 0
_________________________________________________________________
","Model: ""sequential""
_________________________________________________________________
 Layer (type)                Output Shape              Param #   
=================================================================
 lstm (LSTM)                 (None, 10, 75)            23100     
                                                                 
 lstm_1 (LSTM)               (None, 10, 75)            45300     
                                                                 
 lstm_2 (LSTM)               (None, 75)                45300     
                                                                 
 dense (Dense)               (None, 1)                 76        
                                                                 
=================================================================
Total params: 113,776
Trainable params: 113,776
Non-trainable params: 0
_________________________________________________________________
Model: ""sequential_4""
_________________________________________________________________
 Layer (type)                Output Shape              Param #   
=================================================================
 lstm_24 (LSTM)              (None, 20, 50)            10400     
                                                                 
 lstm_25 (LSTM)              (None, 20, 50)            20200     
                                                                 
 lstm_26 (LSTM)              (None, 50)                20200     
                                                                 
 dense_4 (Dense)             (None, 1)                 51        
                                                                 
=================================================================
Total params: 50,851
Trainable params: 50,851
Non-trainable params: 0
_________________________________________________________________
Model: ""sequential_8""
_________________________________________________________________
 Layer (type)                Output Shape              Param #   
=================================================================
 lstm_42 (LSTM)              (None, 30, 75)            23100     
                                                                 
 lstm_43 (LSTM)              (None, 30, 75)            45300     
                                                                 
 lstm_44 (LSTM)              (None, 75)                45300     
                                                                 
 dense_8 (Dense)             (None, 1)                 76        
                                                                 
=================================================================
Total params: 113,776
Trainable params: 113,776
Non-trainable params: 0
_________________________________________________________________
Model: ""sequential_56""
_________________________________________________________________
 Layer (type)                Output Shape              Param #   
=================================================================
 lstm_300 (LSTM)             (None, 40, 125)           63500     
                                                                 
 lstm_301 (LSTM)             (None, 40, 125)           125500    
                                                                 
 lstm_302 (LSTM)             (None, 125)               125500    
                                                                 
 dense_56 (Dense)            (None, 1)                 126       
                                                                 
=================================================================
Total params: 314,626
Trainable params: 314,626
Non-trainable params: 0
_________________________________________________________________
","Model: ""sequential""
_________________________________________________________________
 Layer (type)                Output Shape              Param #   
=================================================================
 lstm (LSTM)                 (None, 10, 75)            23100     
                                                                 
 lstm_1 (LSTM)               (None, 10, 75)            45300     
                                                                 
 lstm_2 (LSTM)               (None, 75)                45300     
                                                                 
 dense (Dense)               (None, 1)                 76        
                                                                 
=================================================================
Total params: 113,776
Trainable params: 113,776
Non-trainable params: 0
_________________________________________________________________
Model: ""sequential_4""
_________________________________________________________________
 Layer (type)                Output Shape              Param #   
=================================================================
 lstm_24 (LSTM)              (None, 20, 50)            10400     
                                                                 
 lstm_25 (LSTM)              (None, 20, 50)            20200     
                                                                 
 lstm_26 (LSTM)              (None, 50)                20200     
                                                                 
 dense_4 (Dense)             (None, 1)                 51        
                                                                 
=================================================================
Total params: 50,851
Trainable params: 50,851
Non-trainable params: 0
_________________________________________________________________
Model: ""sequential_8""
_________________________________________________________________
 Layer (type)                Output Shape              Param #   
=================================================================
 lstm_42 (LSTM)              (None, 30, 75)            23100     
                                                                 
 lstm_43 (LSTM)              (None, 30, 75)            45300     
                                                                 
 lstm_44 (LSTM)              (None, 75)                45300     
                                                                 
 dense_8 (Dense)             (None, 1)                 76        
                                                                 
=================================================================
Total params: 113,776
Trainable params: 113,776
Non-trainable params: 0
_________________________________________________________________
Model: ""sequential_56""
_________________________________________________________________
 Layer (type)                Output Shape              Param #   
=================================================================
 lstm_300 (LSTM)             (None, 40, 125)           63500     
                                                                 
 lstm_301 (LSTM)             (None, 40, 125)           125500    
                                                                 
 lstm_302 (LSTM)             (None, 125)               125500    
                                                                 
 dense_56 (Dense)            (None, 1)                 126       
                                                                 
=================================================================
Total params: 314,626
Trainable params: 314,626
Non-trainable params: 0
_________________________________________________________________
Model: ""sequential_5""
_________________________________________________________________
 Layer (type)                Output Shape              Param #   
=================================================================
 lstm_21 (LSTM)              (None, 50, 50)            10400     
                                                                 
 lstm_22 (LSTM)              (None, 50, 50)            20200     
                                                                 
 lstm_23 (LSTM)              (None, 50)                20200     
                                                                 
 dense_5 (Dense)             (None, 1)                 51        
                                                                 
=================================================================
Total params: 50,851
Trainable params: 50,851
Non-trainable params: 0
_________________________________________________________________
","Model: ""sequential""
_________________________________________________________________
 Layer (type)                Output Shape              Param #   
=================================================================
 lstm (LSTM)                 (None, 10, 75)            23100     
                                                                 
 lstm_1 (LSTM)               (None, 10, 75)            45300     
                                                                 
 lstm_2 (LSTM)               (None, 75)                45300     
                                                                 
 dense (Dense)               (None, 1)                 76        
                                                                 
=================================================================
Total params: 113,776
Trainable params: 113,776
Non-trainable params: 0
_________________________________________________________________
Model: ""sequential_4""
_________________________________________________________________
 Layer (type)                Output Shape              Param #   
=================================================================
 lstm_24 (LSTM)              (None, 20, 50)            10400     
                                                                 
 lstm_25 (LSTM)              (None, 20, 50)            20200     
                                                                 
 lstm_26 (LSTM)              (None, 50)                20200     
                                                                 
 dense_4 (Dense)             (None, 1)                 51        
                                                                 
=================================================================
Total params: 50,851
Trainable params: 50,851
Non-trainable params: 0
_________________________________________________________________
Model: ""sequential_8""
_________________________________________________________________
 Layer (type)                Output Shape              Param #   
=================================================================
 lstm_42 (LSTM)              (None, 30, 75)            23100     
                                                                 
 lstm_43 (LSTM)              (None, 30, 75)            45300     
                                                                 
 lstm_44 (LSTM)              (None, 75)                45300     
                                                                 
 dense_8 (Dense)             (None, 1)                 76        
                                                                 
=================================================================
Total params: 113,776
Trainable params: 113,776
Non-trainable params: 0
_________________________________________________________________
Model: ""sequential_56""
_________________________________________________________________
 Layer (type)                Output Shape              Param #   
=================================================================
 lstm_300 (LSTM)             (None, 40, 125)           63500     
                                                                 
 lstm_301 (LSTM)             (None, 40, 125)           125500    
                                                                 
 lstm_302 (LSTM)             (None, 125)               125500    
                                                                 
 dense_56 (Dense)            (None, 1)                 126       
                                                                 
=================================================================
Total params: 314,626
Trainable params: 314,626
Non-trainable params: 0
_________________________________________________________________
Model: ""sequential_5""
_________________________________________________________________
 Layer (type)                Output Shape              Param #   
=================================================================
 lstm_21 (LSTM)              (None, 50, 50)            10400     
                                                                 
 lstm_22 (LSTM)              (None, 50, 50)            20200     
                                                                 
 lstm_23 (LSTM)              (None, 50)                20200     
                                                                 
 dense_5 (Dense)             (None, 1)                 51        
                                                                 
=================================================================
Total params: 50,851
Trainable params: 50,851
Non-trainable params: 0
_________________________________________________________________
Model: ""sequential_33""
_________________________________________________________________
 Layer (type)                Output Shape              Param #   
=================================================================
 lstm_174 (LSTM)             (None, 60, 125)           63500     
                                                                 
 lstm_175 (LSTM)             (None, 60, 125)           125500    
                                                                 
 lstm_176 (LSTM)             (None, 60, 125)           125500    
                                                                 
 lstm_177 (LSTM)             (None, 125)               125500    
                                                                 
 dense_33 (Dense)            (None, 1)                 126       
                                                                 
=================================================================
Total params: 440,126
Trainable params: 440,126
Non-trainable params: 0
_________________________________________________________________
"
tft,"{'prediction_length': 1, 'lead_time': 0, 'input_names': ['past_target', 'past_observed_values', 'past_feat_dynamic_real', 'past_feat_dynamic_cat', 'feat_dynamic_real', 'feat_dynamic_cat', 'feat_static_real', 'feat_static_cat'], 'prediction_net': TemporalFusionTransformerPredictionNetwork(
…
