…
    (dense_residual): Dense(40 -> 1, linear)
  )
  (embedder): FeatureEmbedder(
  
  )
  (scaler): MeanScaler(
  
  )
), 'batch_size': 32, 'input_transform': <gluonts.transform._base.Chain object at 0x7fdb94664670>, 'forecast_generator': gluonts.model.forecast_generator.SampleForecastGenerator(), 'output_transform': None, 'ctx': cpu(0), 'dtype': <class 'numpy.float32'>}"
lstm,"Model: ""sequential_11""
_________________________________________________________________
 Layer (type)                Output Shape              Param #   
=================================================================
 lstm_61 (LSTM)              (None, 10, 50)            10400     
                                                                 
 lstm_62 (LSTM)              (None, 10, 50)            20200     
                                                                 
 lstm_63 (LSTM)              (None, 10, 50)            20200     
                                                                 
 lstm_64 (LSTM)              (None, 50)                20200     
                                                                 
 dense_11 (Dense)            (None, 1)                 51        
                                                                 
=================================================================
Total params: 71,051
Trainable params: 71,051
Non-trainable params: 0
_________________________________________________________________
","Model: ""sequential_11""
_________________________________________________________________
 Layer (type)                Output Shape              Param #   
=================================================================
 lstm_61 (LSTM)              (None, 10, 50)            10400     
                                                                 
 lstm_62 (LSTM)              (None, 10, 50)            20200     
                                                                 
 lstm_63 (LSTM)              (None, 10, 50)            20200     
                                                                 
 lstm_64 (LSTM)              (None, 50)                20200     
                                                                 
 dense_11 (Dense)            (None, 1)                 51        
                                                                 
=================================================================
Total params: 71,051
Trainable params: 71,051
Non-trainable params: 0
_________________________________________________________________
Model: ""sequential_41""
_________________________________________________________________
 Layer (type)                Output Shape              Param #   
=================================================================
 lstm_206 (LSTM)             (None, 20, 50)            10400     
                                                                 
 lstm_207 (LSTM)             (None, 20, 50)            20200     
                                                                 
 lstm_208 (LSTM)             (None, 50)                20200     
                                                                 
 dense_41 (Dense)            (None, 1)                 51        
                                                                 
=================================================================
Total params: 50,851
Trainable params: 50,851
Non-trainable params: 0
_________________________________________________________________
","Model: ""sequential_11""
_________________________________________________________________
 Layer (type)                Output Shape              Param #   
=================================================================
 lstm_61 (LSTM)              (None, 10, 50)            10400     
                                                                 
 lstm_62 (LSTM)              (None, 10, 50)            20200     
                                                                 
 lstm_63 (LSTM)              (None, 10, 50)            20200     
                                                                 
 lstm_64 (LSTM)              (None, 50)                20200     
                                                                 
 dense_11 (Dense)            (None, 1)                 51        
                                                                 
=================================================================
Total params: 71,051
Trainable params: 71,051
Non-trainable params: 0
_________________________________________________________________
Model: ""sequential_41""
_________________________________________________________________
 Layer (type)                Output Shape              Param #   
=================================================================
 lstm_206 (LSTM)             (None, 20, 50)            10400     
                                                                 
 lstm_207 (LSTM)             (None, 20, 50)            20200     
                                                                 
 lstm_208 (LSTM)             (None, 50)                20200     
                                                                 
 dense_41 (Dense)            (None, 1)                 51        
                                                                 
=================================================================
Total params: 50,851
Trainable params: 50,851
Non-trainable params: 0
_________________________________________________________________
Model: ""sequential_27""
_________________________________________________________________
 Layer (type)                Output Shape              Param #   
=================================================================
 lstm_129 (LSTM)             (None, 30, 50)            10400     
                                                                 
 lstm_130 (LSTM)             (None, 30, 50)            20200     
                                                                 
 lstm_131 (LSTM)             (None, 30, 50)            20200     
                                                                 
 lstm_132 (LSTM)             (None, 50)                20200     
                                                                 
 dense_27 (Dense)            (None, 1)                 51        
                                                                 
=================================================================
Total params: 71,051
Trainable params: 71,051
Non-trainable params: 0
_________________________________________________________________
","Model: ""sequential_11""
_________________________________________________________________
 Layer (type)                Output Shape              Param #   
=================================================================
 lstm_61 (LSTM)              (None, 10, 50)            10400     
                                                                 
 lstm_62 (LSTM)              (None, 10, 50)            20200     
                                                                 
 lstm_63 (LSTM)              (None, 10, 50)            20200     
                                                                 
 lstm_64 (LSTM)              (None, 50)                20200     
                                                                 
 dense_11 (Dense)            (None, 1)                 51        
                                                                 
=================================================================
Total params: 71,051
Trainable params: 71,051
Non-trainable params: 0
_________________________________________________________________
Model: ""sequential_41""
_________________________________________________________________
 Layer (type)                Output Shape              Param #   
=================================================================
 lstm_206 (LSTM)             (None, 20, 50)            10400     
                                                                 
 lstm_207 (LSTM)             (None, 20, 50)            20200     
                                                                 
 lstm_208 (LSTM)             (None, 50)                20200     
                                                                 
 dense_41 (Dense)            (None, 1)                 51        
                                                                 
=================================================================
Total params: 50,851
Trainable params: 50,851
Non-trainable params: 0
_________________________________________________________________
Model: ""sequential_27""
_________________________________________________________________
 Layer (type)                Output Shape              Param #   
=================================================================
 lstm_129 (LSTM)             (None, 30, 50)            10400     
                                                                 
 lstm_130 (LSTM)             (None, 30, 50)            20200     
                                                                 
 lstm_131 (LSTM)             (None, 30, 50)            20200     
                                                                 
 lstm_132 (LSTM)             (None, 50)                20200     
                                                                 
 dense_27 (Dense)            (None, 1)                 51        
                                                                 
=================================================================
Total params: 71,051
Trainable params: 71,051
Non-trainable params: 0
_________________________________________________________________
Model: ""sequential_44""
_________________________________________________________________
 Layer (type)                Output Shape              Param #   
=================================================================
 lstm_217 (LSTM)             (None, 40, 125)           63500     
                                                                 
 lstm_218 (LSTM)             (None, 40, 125)           125500    
                                                                 
 lstm_219 (LSTM)             (None, 40, 125)           125500    
                                                                 
 lstm_220 (LSTM)             (None, 40, 125)           125500    
                                                                 
 lstm_221 (LSTM)             (None, 40, 125)           125500    
                                                                 
 lstm_222 (LSTM)             (None, 125)               125500    
                                                                 
 dense_44 (Dense)            (None, 1)                 126       
                                                                 
=================================================================
Total params: 691,126
Trainable params: 691,126
Non-trainable params: 0
_________________________________________________________________
","Model: ""sequential_11""
_________________________________________________________________
 Layer (type)                Output Shape              Param #   
=================================================================
 lstm_61 (LSTM)              (None, 10, 50)            10400     
                                                                 
 lstm_62 (LSTM)              (None, 10, 50)            20200     
                                                                 
 lstm_63 (LSTM)              (None, 10, 50)            20200     
                                                                 
 lstm_64 (LSTM)              (None, 50)                20200     
                                                                 
 dense_11 (Dense)            (None, 1)                 51        
                                                                 
=================================================================
Total params: 71,051
Trainable params: 71,051
Non-trainable params: 0
_________________________________________________________________
Model: ""sequential_41""
_________________________________________________________________
 Layer (type)                Output Shape              Param #   
=================================================================
 lstm_206 (LSTM)             (None, 20, 50)            10400     
                                                                 
 lstm_207 (LSTM)             (None, 20, 50)            20200     
                                                                 
 lstm_208 (LSTM)             (None, 50)                20200     
                                                                 
 dense_41 (Dense)            (None, 1)                 51        
                                                                 
=================================================================
Total params: 50,851
Trainable params: 50,851
Non-trainable params: 0
_________________________________________________________________
Model: ""sequential_27""
_________________________________________________________________
 Layer (type)                Output Shape              Param #   
=================================================================
 lstm_129 (LSTM)             (None, 30, 50)            10400     
                                                                 
 lstm_130 (LSTM)             (None, 30, 50)            20200     
                                                                 
 lstm_131 (LSTM)             (None, 30, 50)            20200     
                                                                 
 lstm_132 (LSTM)             (None, 50)                20200     
                                                                 
 dense_27 (Dense)            (None, 1)                 51        
                                                                 
=================================================================
Total params: 71,051
Trainable params: 71,051
Non-trainable params: 0
_________________________________________________________________
Model: ""sequential_44""
_________________________________________________________________
 Layer (type)                Output Shape              Param #   
=================================================================
 lstm_217 (LSTM)             (None, 40, 125)           63500     
                                                                 
 lstm_218 (LSTM)             (None, 40, 125)           125500    
                                                                 
 lstm_219 (LSTM)             (None, 40, 125)           125500    
                                                                 
 lstm_220 (LSTM)             (None, 40, 125)           125500    
                                                                 
 lstm_221 (LSTM)             (None, 40, 125)           125500    
                                                                 
 lstm_222 (LSTM)             (None, 125)               125500    
                                                                 
 dense_44 (Dense)            (None, 1)                 126       
                                                                 
=================================================================
Total params: 691,126
Trainable params: 691,126
Non-trainable params: 0
_________________________________________________________________
Model: ""sequential_49""
_________________________________________________________________
 Layer (type)                Output Shape              Param #   
=================================================================
 lstm_250 (LSTM)             (None, 50, 50)            10400     
                                                                 
 lstm_251 (LSTM)             (None, 50, 50)            20200     
                                                                 
 lstm_252 (LSTM)             (None, 50)                20200     
                                                                 
 dense_49 (Dense)            (None, 1)                 51        
                                                                 
=================================================================
Total params: 50,851
Trainable params: 50,851
Non-trainable params: 0
_________________________________________________________________
","Model: ""sequential_11""
_________________________________________________________________
 Layer (type)                Output Shape              Param #   
=================================================================
 lstm_61 (LSTM)              (None, 10, 50)            10400     
                                                                 
 lstm_62 (LSTM)              (None, 10, 50)            20200     
                                                                 
 lstm_63 (LSTM)              (None, 10, 50)            20200     
                                                                 
 lstm_64 (LSTM)              (None, 50)                20200     
                                                                 
 dense_11 (Dense)            (None, 1)                 51        
                                                                 
=================================================================
Total params: 71,051
Trainable params: 71,051
Non-trainable params: 0
_________________________________________________________________
Model: ""sequential_41""
_________________________________________________________________
 Layer (type)                Output Shape              Param #   
=================================================================
 lstm_206 (LSTM)             (None, 20, 50)            10400     
                                                                 
 lstm_207 (LSTM)             (None, 20, 50)            20200     
                                                                 
 lstm_208 (LSTM)             (None, 50)                20200     
                                                                 
 dense_41 (Dense)            (None, 1)                 51        
                                                                 
=================================================================
Total params: 50,851
Trainable params: 50,851
Non-trainable params: 0
_________________________________________________________________
Model: ""sequential_27""
_________________________________________________________________
 Layer (type)                Output Shape              Param #   
=================================================================
 lstm_129 (LSTM)             (None, 30, 50)            10400     
                                                                 
 lstm_130 (LSTM)             (None, 30, 50)            20200     
                                                                 
 lstm_131 (LSTM)             (None, 30, 50)            20200     
                                                                 
 lstm_132 (LSTM)             (None, 50)                20200     
                                                                 
 dense_27 (Dense)            (None, 1)                 51        
                                                                 
=================================================================
Total params: 71,051
Trainable params: 71,051
Non-trainable params: 0
_________________________________________________________________
Model: ""sequential_44""
_________________________________________________________________
 Layer (type)                Output Shape              Param #   
=================================================================
 lstm_217 (LSTM)             (None, 40, 125)           63500     
                                                                 
 lstm_218 (LSTM)             (None, 40, 125)           125500    
                                                                 
 lstm_219 (LSTM)             (None, 40, 125)           125500    
                                                                 
 lstm_220 (LSTM)             (None, 40, 125)           125500    
                                                                 
 lstm_221 (LSTM)             (None, 40, 125)           125500    
                                                                 
 lstm_222 (LSTM)             (None, 125)               125500    
                                                                 
 dense_44 (Dense)            (None, 1)                 126       
                                                                 
=================================================================
Total params: 691,126
Trainable params: 691,126
Non-trainable params: 0
_________________________________________________________________
Model: ""sequential_49""
_________________________________________________________________
 Layer (type)                Output Shape              Param #   
=================================================================
 lstm_250 (LSTM)             (None, 50, 50)            10400     
                                                                 
 lstm_251 (LSTM)             (None, 50, 50)            20200     
                                                                 
 lstm_252 (LSTM)             (None, 50)                20200     
                                                                 
 dense_49 (Dense)            (None, 1)                 51        
                                                                 
=================================================================
Total params: 50,851
Trainable params: 50,851
Non-trainable params: 0
_________________________________________________________________
Model: ""sequential_55""
_________________________________________________________________
 Layer (type)                Output Shape              Param #   
=================================================================
 lstm_273 (LSTM)             (None, 60, 125)           63500     
                                                                 
 lstm_274 (LSTM)             (None, 60, 125)           125500    
                                                                 
 lstm_275 (LSTM)             (None, 125)               125500    
                                                                 
 dense_55 (Dense)            (None, 1)                 126       
                                                                 
=================================================================
Total params: 314,626
Trainable params: 314,626
Non-trainable params: 0
_________________________________________________________________
"
tft,"{'prediction_length': 1, 'lead_time': 0, 'input_names': ['past_target', 'past_observed_values', 'past_feat_dynamic_real', 'past_feat_dynamic_cat', 'feat_dynamic_real', 'feat_dynamic_cat', 'feat_static_real', 'feat_static_cat'], 'prediction_net': TemporalFusionTransformerPredictionNetwork(
…
