…
    (dense_residual): Dense(40 -> 1, linear)
  )
  (embedder): FeatureEmbedder(
  
  )
  (scaler): MeanScaler(
  
  )
), 'batch_size': 32, 'input_transform': <gluonts.transform._base.Chain object at 0x7fdb8fcdc2b0>, 'forecast_generator': gluonts.model.forecast_generator.SampleForecastGenerator(), 'output_transform': None, 'ctx': cpu(0), 'dtype': <class 'numpy.float32'>}"
lstm,"Model: ""sequential_7""
_________________________________________________________________
 Layer (type)                Output Shape              Param #   
=================================================================
 lstm_39 (LSTM)              (None, 9, 50)             10400     
                                                                 
 lstm_40 (LSTM)              (None, 9, 50)             20200     
                                                                 
 lstm_41 (LSTM)              (None, 9, 50)             20200     
                                                                 
 lstm_42 (LSTM)              (None, 50)                20200     
                                                                 
 dense_7 (Dense)             (None, 1)                 51        
                                                                 
=================================================================
Total params: 71,051
Trainable params: 71,051
Non-trainable params: 0
_________________________________________________________________
","Model: ""sequential_7""
_________________________________________________________________
 Layer (type)                Output Shape              Param #   
=================================================================
 lstm_39 (LSTM)              (None, 9, 50)             10400     
                                                                 
 lstm_40 (LSTM)              (None, 9, 50)             20200     
                                                                 
 lstm_41 (LSTM)              (None, 9, 50)             20200     
                                                                 
 lstm_42 (LSTM)              (None, 50)                20200     
                                                                 
 dense_7 (Dense)             (None, 1)                 51        
                                                                 
=================================================================
Total params: 71,051
Trainable params: 71,051
Non-trainable params: 0
_________________________________________________________________
Model: ""sequential_9""
_________________________________________________________________
 Layer (type)                Output Shape              Param #   
=================================================================
 lstm_47 (LSTM)              (None, 18, 125)           63500     
                                                                 
 lstm_48 (LSTM)              (None, 18, 125)           125500    
                                                                 
 lstm_49 (LSTM)              (None, 125)               125500    
                                                                 
 dense_9 (Dense)             (None, 1)                 126       
                                                                 
=================================================================
Total params: 314,626
Trainable params: 314,626
Non-trainable params: 0
_________________________________________________________________
","Model: ""sequential_7""
_________________________________________________________________
 Layer (type)                Output Shape              Param #   
=================================================================
 lstm_39 (LSTM)              (None, 9, 50)             10400     
                                                                 
 lstm_40 (LSTM)              (None, 9, 50)             20200     
                                                                 
 lstm_41 (LSTM)              (None, 9, 50)             20200     
                                                                 
 lstm_42 (LSTM)              (None, 50)                20200     
                                                                 
 dense_7 (Dense)             (None, 1)                 51        
                                                                 
=================================================================
Total params: 71,051
Trainable params: 71,051
Non-trainable params: 0
_________________________________________________________________
Model: ""sequential_9""
_________________________________________________________________
 Layer (type)                Output Shape              Param #   
=================================================================
 lstm_47 (LSTM)              (None, 18, 125)           63500     
                                                                 
 lstm_48 (LSTM)              (None, 18, 125)           125500    
                                                                 
 lstm_49 (LSTM)              (None, 125)               125500    
                                                                 
 dense_9 (Dense)             (None, 1)                 126       
                                                                 
=================================================================
Total params: 314,626
Trainable params: 314,626
Non-trainable params: 0
_________________________________________________________________
Model: ""sequential_18""
_________________________________________________________________
 Layer (type)                Output Shape              Param #   
=================================================================
 lstm_96 (LSTM)              (None, 26, 75)            23100     
                                                                 
 lstm_97 (LSTM)              (None, 26, 75)            45300     
                                                                 
 lstm_98 (LSTM)              (None, 75)                45300     
                                                                 
 dense_18 (Dense)            (None, 1)                 76        
                                                                 
=================================================================
Total params: 113,776
Trainable params: 113,776
Non-trainable params: 0
_________________________________________________________________
","Model: ""sequential_7""
_________________________________________________________________
 Layer (type)                Output Shape              Param #   
=================================================================
 lstm_39 (LSTM)              (None, 9, 50)             10400     
                                                                 
 lstm_40 (LSTM)              (None, 9, 50)             20200     
                                                                 
 lstm_41 (LSTM)              (None, 9, 50)             20200     
                                                                 
 lstm_42 (LSTM)              (None, 50)                20200     
                                                                 
 dense_7 (Dense)             (None, 1)                 51        
                                                                 
=================================================================
Total params: 71,051
Trainable params: 71,051
Non-trainable params: 0
_________________________________________________________________
Model: ""sequential_9""
_________________________________________________________________
 Layer (type)                Output Shape              Param #   
=================================================================
 lstm_47 (LSTM)              (None, 18, 125)           63500     
                                                                 
 lstm_48 (LSTM)              (None, 18, 125)           125500    
                                                                 
 lstm_49 (LSTM)              (None, 125)               125500    
                                                                 
 dense_9 (Dense)             (None, 1)                 126       
                                                                 
=================================================================
Total params: 314,626
Trainable params: 314,626
Non-trainable params: 0
_________________________________________________________________
Model: ""sequential_18""
_________________________________________________________________
 Layer (type)                Output Shape              Param #   
=================================================================
 lstm_96 (LSTM)              (None, 26, 75)            23100     
                                                                 
 lstm_97 (LSTM)              (None, 26, 75)            45300     
                                                                 
 lstm_98 (LSTM)              (None, 75)                45300     
                                                                 
 dense_18 (Dense)            (None, 1)                 76        
                                                                 
=================================================================
Total params: 113,776
Trainable params: 113,776
Non-trainable params: 0
_________________________________________________________________
Model: ""sequential_40""
_________________________________________________________________
 Layer (type)                Output Shape              Param #   
=================================================================
 lstm_220 (LSTM)             (None, 34, 50)            10400     
                                                                 
 lstm_221 (LSTM)             (None, 34, 50)            20200     
                                                                 
 lstm_222 (LSTM)             (None, 34, 50)            20200     
                                                                 
 lstm_223 (LSTM)             (None, 34, 50)            20200     
                                                                 
 lstm_224 (LSTM)             (None, 34, 50)            20200     
                                                                 
 lstm_225 (LSTM)             (None, 50)                20200     
                                                                 
 dense_40 (Dense)            (None, 1)                 51        
                                                                 
=================================================================
Total params: 111,451
Trainable params: 111,451
Non-trainable params: 0
_________________________________________________________________
","Model: ""sequential_7""
_________________________________________________________________
 Layer (type)                Output Shape              Param #   
=================================================================
 lstm_39 (LSTM)              (None, 9, 50)             10400     
                                                                 
 lstm_40 (LSTM)              (None, 9, 50)             20200     
                                                                 
 lstm_41 (LSTM)              (None, 9, 50)             20200     
                                                                 
 lstm_42 (LSTM)              (None, 50)                20200     
                                                                 
 dense_7 (Dense)             (None, 1)                 51        
                                                                 
=================================================================
Total params: 71,051
Trainable params: 71,051
Non-trainable params: 0
_________________________________________________________________
Model: ""sequential_9""
_________________________________________________________________
 Layer (type)                Output Shape              Param #   
=================================================================
 lstm_47 (LSTM)              (None, 18, 125)           63500     
                                                                 
 lstm_48 (LSTM)              (None, 18, 125)           125500    
                                                                 
 lstm_49 (LSTM)              (None, 125)               125500    
                                                                 
 dense_9 (Dense)             (None, 1)                 126       
                                                                 
=================================================================
Total params: 314,626
Trainable params: 314,626
Non-trainable params: 0
_________________________________________________________________
Model: ""sequential_18""
_________________________________________________________________
 Layer (type)                Output Shape              Param #   
=================================================================
 lstm_96 (LSTM)              (None, 26, 75)            23100     
                                                                 
 lstm_97 (LSTM)              (None, 26, 75)            45300     
                                                                 
 lstm_98 (LSTM)              (None, 75)                45300     
                                                                 
 dense_18 (Dense)            (None, 1)                 76        
                                                                 
=================================================================
Total params: 113,776
Trainable params: 113,776
Non-trainable params: 0
_________________________________________________________________
Model: ""sequential_40""
_________________________________________________________________
 Layer (type)                Output Shape              Param #   
=================================================================
 lstm_220 (LSTM)             (None, 34, 50)            10400     
                                                                 
 lstm_221 (LSTM)             (None, 34, 50)            20200     
                                                                 
 lstm_222 (LSTM)             (None, 34, 50)            20200     
                                                                 
 lstm_223 (LSTM)             (None, 34, 50)            20200     
                                                                 
 lstm_224 (LSTM)             (None, 34, 50)            20200     
                                                                 
 lstm_225 (LSTM)             (None, 50)                20200     
                                                                 
 dense_40 (Dense)            (None, 1)                 51        
                                                                 
=================================================================
Total params: 111,451
Trainable params: 111,451
Non-trainable params: 0
_________________________________________________________________
Model: ""sequential_28""
_________________________________________________________________
 Layer (type)                Output Shape              Param #   
=================================================================
 lstm_141 (LSTM)             (None, 42, 75)            23100     
                                                                 
 lstm_142 (LSTM)             (None, 42, 75)            45300     
                                                                 
 lstm_143 (LSTM)             (None, 75)                45300     
                                                                 
 dense_28 (Dense)            (None, 1)                 76        
                                                                 
=================================================================
Total params: 113,776
Trainable params: 113,776
Non-trainable params: 0
_________________________________________________________________
","Model: ""sequential_7""
_________________________________________________________________
 Layer (type)                Output Shape              Param #   
=================================================================
 lstm_39 (LSTM)              (None, 9, 50)             10400     
                                                                 
 lstm_40 (LSTM)              (None, 9, 50)             20200     
                                                                 
 lstm_41 (LSTM)              (None, 9, 50)             20200     
                                                                 
 lstm_42 (LSTM)              (None, 50)                20200     
                                                                 
 dense_7 (Dense)             (None, 1)                 51        
                                                                 
=================================================================
Total params: 71,051
Trainable params: 71,051
Non-trainable params: 0
_________________________________________________________________
Model: ""sequential_9""
_________________________________________________________________
 Layer (type)                Output Shape              Param #   
=================================================================
 lstm_47 (LSTM)              (None, 18, 125)           63500     
                                                                 
 lstm_48 (LSTM)              (None, 18, 125)           125500    
                                                                 
 lstm_49 (LSTM)              (None, 125)               125500    
                                                                 
 dense_9 (Dense)             (None, 1)                 126       
                                                                 
=================================================================
Total params: 314,626
Trainable params: 314,626
Non-trainable params: 0
_________________________________________________________________
Model: ""sequential_18""
_________________________________________________________________
 Layer (type)                Output Shape              Param #   
=================================================================
 lstm_96 (LSTM)              (None, 26, 75)            23100     
                                                                 
 lstm_97 (LSTM)              (None, 26, 75)            45300     
                                                                 
 lstm_98 (LSTM)              (None, 75)                45300     
                                                                 
 dense_18 (Dense)            (None, 1)                 76        
                                                                 
=================================================================
Total params: 113,776
Trainable params: 113,776
Non-trainable params: 0
_________________________________________________________________
Model: ""sequential_40""
_________________________________________________________________
 Layer (type)                Output Shape              Param #   
=================================================================
 lstm_220 (LSTM)             (None, 34, 50)            10400     
                                                                 
 lstm_221 (LSTM)             (None, 34, 50)            20200     
                                                                 
 lstm_222 (LSTM)             (None, 34, 50)            20200     
                                                                 
 lstm_223 (LSTM)             (None, 34, 50)            20200     
                                                                 
 lstm_224 (LSTM)             (None, 34, 50)            20200     
                                                                 
 lstm_225 (LSTM)             (None, 50)                20200     
                                                                 
 dense_40 (Dense)            (None, 1)                 51        
                                                                 
=================================================================
Total params: 111,451
Trainable params: 111,451
Non-trainable params: 0
_________________________________________________________________
Model: ""sequential_28""
_________________________________________________________________
 Layer (type)                Output Shape              Param #   
=================================================================
 lstm_141 (LSTM)             (None, 42, 75)            23100     
                                                                 
 lstm_142 (LSTM)             (None, 42, 75)            45300     
                                                                 
 lstm_143 (LSTM)             (None, 75)                45300     
                                                                 
 dense_28 (Dense)            (None, 1)                 76        
                                                                 
=================================================================
Total params: 113,776
Trainable params: 113,776
Non-trainable params: 0
_________________________________________________________________
Model: ""sequential_17""
_________________________________________________________________
 Layer (type)                Output Shape              Param #   
=================================================================
 lstm_91 (LSTM)              (None, 49, 75)            23100     
                                                                 
 lstm_92 (LSTM)              (None, 49, 75)            45300     
                                                                 
 lstm_93 (LSTM)              (None, 49, 75)            45300     
                                                                 
 lstm_94 (LSTM)              (None, 75)                45300     
                                                                 
 dense_17 (Dense)            (None, 1)                 76        
                                                                 
=================================================================
Total params: 159,076
Trainable params: 159,076
Non-trainable params: 0
_________________________________________________________________
"
tft,"{'prediction_length': 1, 'lead_time': 0, 'input_names': ['past_target', 'past_observed_values', 'past_feat_dynamic_real', 'past_feat_dynamic_cat', 'feat_dynamic_real', 'feat_dynamic_cat', 'feat_static_real', 'feat_static_cat'], 'prediction_net': TemporalFusionTransformerPredictionNetwork(
…
