…
    (dense_residual): Dense(40 -> 1, linear)
  )
  (embedder): FeatureEmbedder(
  
  )
  (scaler): MeanScaler(
  
  )
), 'batch_size': 32, 'input_transform': <gluonts.transform._base.Chain object at 0x7fdaceeb1f70>, 'forecast_generator': gluonts.model.forecast_generator.SampleForecastGenerator(), 'output_transform': None, 'ctx': cpu(0), 'dtype': <class 'numpy.float32'>}"
lstm,"Model: ""sequential_24""
_________________________________________________________________
 Layer (type)                Output Shape              Param #   
=================================================================
 lstm_123 (LSTM)             (None, 10, 75)            23100     
                                                                 
 lstm_124 (LSTM)             (None, 10, 75)            45300     
                                                                 
 lstm_125 (LSTM)             (None, 75)                45300     
                                                                 
 dense_24 (Dense)            (None, 1)                 76        
                                                                 
=================================================================
Total params: 113,776
Trainable params: 113,776
Non-trainable params: 0
_________________________________________________________________
","Model: ""sequential_24""
_________________________________________________________________
 Layer (type)                Output Shape              Param #   
=================================================================
 lstm_123 (LSTM)             (None, 10, 75)            23100     
                                                                 
 lstm_124 (LSTM)             (None, 10, 75)            45300     
                                                                 
 lstm_125 (LSTM)             (None, 75)                45300     
                                                                 
 dense_24 (Dense)            (None, 1)                 76        
                                                                 
=================================================================
Total params: 113,776
Trainable params: 113,776
Non-trainable params: 0
_________________________________________________________________
Model: ""sequential_44""
_________________________________________________________________
 Layer (type)                Output Shape              Param #   
=================================================================
 lstm_220 (LSTM)             (None, 20, 125)           63500     
                                                                 
 lstm_221 (LSTM)             (None, 20, 125)           125500    
                                                                 
 lstm_222 (LSTM)             (None, 125)               125500    
                                                                 
 dense_44 (Dense)            (None, 1)                 126       
                                                                 
=================================================================
Total params: 314,626
Trainable params: 314,626
Non-trainable params: 0
_________________________________________________________________
","Model: ""sequential_24""
_________________________________________________________________
 Layer (type)                Output Shape              Param #   
=================================================================
 lstm_123 (LSTM)             (None, 10, 75)            23100     
                                                                 
 lstm_124 (LSTM)             (None, 10, 75)            45300     
                                                                 
 lstm_125 (LSTM)             (None, 75)                45300     
                                                                 
 dense_24 (Dense)            (None, 1)                 76        
                                                                 
=================================================================
Total params: 113,776
Trainable params: 113,776
Non-trainable params: 0
_________________________________________________________________
Model: ""sequential_44""
_________________________________________________________________
 Layer (type)                Output Shape              Param #   
=================================================================
 lstm_220 (LSTM)             (None, 20, 125)           63500     
                                                                 
 lstm_221 (LSTM)             (None, 20, 125)           125500    
                                                                 
 lstm_222 (LSTM)             (None, 125)               125500    
                                                                 
 dense_44 (Dense)            (None, 1)                 126       
                                                                 
=================================================================
Total params: 314,626
Trainable params: 314,626
Non-trainable params: 0
_________________________________________________________________
Model: ""sequential_15""
_________________________________________________________________
 Layer (type)                Output Shape              Param #   
=================================================================
 lstm_69 (LSTM)              (None, 30, 125)           63500     
                                                                 
 lstm_70 (LSTM)              (None, 30, 125)           125500    
                                                                 
 lstm_71 (LSTM)              (None, 125)               125500    
                                                                 
 dense_15 (Dense)            (None, 1)                 126       
                                                                 
=================================================================
Total params: 314,626
Trainable params: 314,626
Non-trainable params: 0
_________________________________________________________________
","Model: ""sequential_24""
_________________________________________________________________
 Layer (type)                Output Shape              Param #   
=================================================================
 lstm_123 (LSTM)             (None, 10, 75)            23100     
                                                                 
 lstm_124 (LSTM)             (None, 10, 75)            45300     
                                                                 
 lstm_125 (LSTM)             (None, 75)                45300     
                                                                 
 dense_24 (Dense)            (None, 1)                 76        
                                                                 
=================================================================
Total params: 113,776
Trainable params: 113,776
Non-trainable params: 0
_________________________________________________________________
Model: ""sequential_44""
_________________________________________________________________
 Layer (type)                Output Shape              Param #   
=================================================================
 lstm_220 (LSTM)             (None, 20, 125)           63500     
                                                                 
 lstm_221 (LSTM)             (None, 20, 125)           125500    
                                                                 
 lstm_222 (LSTM)             (None, 125)               125500    
                                                                 
 dense_44 (Dense)            (None, 1)                 126       
                                                                 
=================================================================
Total params: 314,626
Trainable params: 314,626
Non-trainable params: 0
_________________________________________________________________
Model: ""sequential_15""
_________________________________________________________________
 Layer (type)                Output Shape              Param #   
=================================================================
 lstm_69 (LSTM)              (None, 30, 125)           63500     
                                                                 
 lstm_70 (LSTM)              (None, 30, 125)           125500    
                                                                 
 lstm_71 (LSTM)              (None, 125)               125500    
                                                                 
 dense_15 (Dense)            (None, 1)                 126       
                                                                 
=================================================================
Total params: 314,626
Trainable params: 314,626
Non-trainable params: 0
_________________________________________________________________
Model: ""sequential_31""
_________________________________________________________________
 Layer (type)                Output Shape              Param #   
=================================================================
 lstm_155 (LSTM)             (None, 40, 50)            10400     
                                                                 
 lstm_156 (LSTM)             (None, 40, 50)            20200     
                                                                 
 lstm_157 (LSTM)             (None, 40, 50)            20200     
                                                                 
 lstm_158 (LSTM)             (None, 50)                20200     
                                                                 
 dense_31 (Dense)            (None, 1)                 51        
                                                                 
=================================================================
Total params: 71,051
Trainable params: 71,051
Non-trainable params: 0
_________________________________________________________________
","Model: ""sequential_24""
_________________________________________________________________
 Layer (type)                Output Shape              Param #   
=================================================================
 lstm_123 (LSTM)             (None, 10, 75)            23100     
                                                                 
 lstm_124 (LSTM)             (None, 10, 75)            45300     
                                                                 
 lstm_125 (LSTM)             (None, 75)                45300     
                                                                 
 dense_24 (Dense)            (None, 1)                 76        
                                                                 
=================================================================
Total params: 113,776
Trainable params: 113,776
Non-trainable params: 0
_________________________________________________________________
Model: ""sequential_44""
_________________________________________________________________
 Layer (type)                Output Shape              Param #   
=================================================================
 lstm_220 (LSTM)             (None, 20, 125)           63500     
                                                                 
 lstm_221 (LSTM)             (None, 20, 125)           125500    
                                                                 
 lstm_222 (LSTM)             (None, 125)               125500    
                                                                 
 dense_44 (Dense)            (None, 1)                 126       
                                                                 
=================================================================
Total params: 314,626
Trainable params: 314,626
Non-trainable params: 0
_________________________________________________________________
Model: ""sequential_15""
_________________________________________________________________
 Layer (type)                Output Shape              Param #   
=================================================================
 lstm_69 (LSTM)              (None, 30, 125)           63500     
                                                                 
 lstm_70 (LSTM)              (None, 30, 125)           125500    
                                                                 
 lstm_71 (LSTM)              (None, 125)               125500    
                                                                 
 dense_15 (Dense)            (None, 1)                 126       
                                                                 
=================================================================
Total params: 314,626
Trainable params: 314,626
Non-trainable params: 0
_________________________________________________________________
Model: ""sequential_31""
_________________________________________________________________
 Layer (type)                Output Shape              Param #   
=================================================================
 lstm_155 (LSTM)             (None, 40, 50)            10400     
                                                                 
 lstm_156 (LSTM)             (None, 40, 50)            20200     
                                                                 
 lstm_157 (LSTM)             (None, 40, 50)            20200     
                                                                 
 lstm_158 (LSTM)             (None, 50)                20200     
                                                                 
 dense_31 (Dense)            (None, 1)                 51        
                                                                 
=================================================================
Total params: 71,051
Trainable params: 71,051
Non-trainable params: 0
_________________________________________________________________
Model: ""sequential_34""
_________________________________________________________________
 Layer (type)                Output Shape              Param #   
=================================================================
 lstm_165 (LSTM)             (None, 50, 50)            10400     
                                                                 
 lstm_166 (LSTM)             (None, 50, 50)            20200     
                                                                 
 lstm_167 (LSTM)             (None, 50)                20200     
                                                                 
 dense_34 (Dense)            (None, 1)                 51        
                                                                 
=================================================================
Total params: 50,851
Trainable params: 50,851
Non-trainable params: 0
_________________________________________________________________
","Model: ""sequential_24""
_________________________________________________________________
 Layer (type)                Output Shape              Param #   
=================================================================
 lstm_123 (LSTM)             (None, 10, 75)            23100     
                                                                 
 lstm_124 (LSTM)             (None, 10, 75)            45300     
                                                                 
 lstm_125 (LSTM)             (None, 75)                45300     
                                                                 
 dense_24 (Dense)            (None, 1)                 76        
                                                                 
=================================================================
Total params: 113,776
Trainable params: 113,776
Non-trainable params: 0
_________________________________________________________________
Model: ""sequential_44""
_________________________________________________________________
 Layer (type)                Output Shape              Param #   
=================================================================
 lstm_220 (LSTM)             (None, 20, 125)           63500     
                                                                 
 lstm_221 (LSTM)             (None, 20, 125)           125500    
                                                                 
 lstm_222 (LSTM)             (None, 125)               125500    
                                                                 
 dense_44 (Dense)            (None, 1)                 126       
                                                                 
=================================================================
Total params: 314,626
Trainable params: 314,626
Non-trainable params: 0
_________________________________________________________________
Model: ""sequential_15""
_________________________________________________________________
 Layer (type)                Output Shape              Param #   
=================================================================
 lstm_69 (LSTM)              (None, 30, 125)           63500     
                                                                 
 lstm_70 (LSTM)              (None, 30, 125)           125500    
                                                                 
 lstm_71 (LSTM)              (None, 125)               125500    
                                                                 
 dense_15 (Dense)            (None, 1)                 126       
                                                                 
=================================================================
Total params: 314,626
Trainable params: 314,626
Non-trainable params: 0
_________________________________________________________________
Model: ""sequential_31""
_________________________________________________________________
 Layer (type)                Output Shape              Param #   
=================================================================
 lstm_155 (LSTM)             (None, 40, 50)            10400     
                                                                 
 lstm_156 (LSTM)             (None, 40, 50)            20200     
                                                                 
 lstm_157 (LSTM)             (None, 40, 50)            20200     
                                                                 
 lstm_158 (LSTM)             (None, 50)                20200     
                                                                 
 dense_31 (Dense)            (None, 1)                 51        
                                                                 
=================================================================
Total params: 71,051
Trainable params: 71,051
Non-trainable params: 0
_________________________________________________________________
Model: ""sequential_34""
_________________________________________________________________
 Layer (type)                Output Shape              Param #   
=================================================================
 lstm_165 (LSTM)             (None, 50, 50)            10400     
                                                                 
 lstm_166 (LSTM)             (None, 50, 50)            20200     
                                                                 
 lstm_167 (LSTM)             (None, 50)                20200     
                                                                 
 dense_34 (Dense)            (None, 1)                 51        
                                                                 
=================================================================
Total params: 50,851
Trainable params: 50,851
Non-trainable params: 0
_________________________________________________________________
Model: ""sequential_25""
_________________________________________________________________
 Layer (type)                Output Shape              Param #   
=================================================================
 lstm_114 (LSTM)             (None, 60, 75)            23100     
                                                                 
 lstm_115 (LSTM)             (None, 60, 75)            45300     
                                                                 
 lstm_116 (LSTM)             (None, 60, 75)            45300     
                                                                 
 lstm_117 (LSTM)             (None, 75)                45300     
                                                                 
 dense_25 (Dense)            (None, 1)                 76        
                                                                 
=================================================================
Total params: 159,076
Trainable params: 159,076
Non-trainable params: 0
_________________________________________________________________
"
tft,"{'prediction_length': 1, 'lead_time': 0, 'input_names': ['past_target', 'past_observed_values', 'past_feat_dynamic_real', 'past_feat_dynamic_cat', 'feat_dynamic_real', 'feat_dynamic_cat', 'feat_static_real', 'feat_static_cat'], 'prediction_net': TemporalFusionTransformerPredictionNetwork(
…
