…
    (dense_residual): Dense(40 -> 1, linear)
  )
  (embedder): FeatureEmbedder(
  
  )
  (scaler): MeanScaler(
  
  )
), 'batch_size': 32, 'input_transform': <gluonts.transform._base.Chain object at 0x7fdacd8b10d0>, 'forecast_generator': gluonts.model.forecast_generator.SampleForecastGenerator(), 'output_transform': None, 'ctx': cpu(0), 'dtype': <class 'numpy.float32'>}"
lstm,"Model: ""sequential_53""
_________________________________________________________________
 Layer (type)                Output Shape              Param #   
=================================================================
 lstm_274 (LSTM)             (None, 10, 75)            23100     
                                                                 
 lstm_275 (LSTM)             (None, 10, 75)            45300     
                                                                 
 lstm_276 (LSTM)             (None, 75)                45300     
                                                                 
 dense_53 (Dense)            (None, 1)                 76        
                                                                 
=================================================================
Total params: 113,776
Trainable params: 113,776
Non-trainable params: 0
_________________________________________________________________
","Model: ""sequential_53""
_________________________________________________________________
 Layer (type)                Output Shape              Param #   
=================================================================
 lstm_274 (LSTM)             (None, 10, 75)            23100     
                                                                 
 lstm_275 (LSTM)             (None, 10, 75)            45300     
                                                                 
 lstm_276 (LSTM)             (None, 75)                45300     
                                                                 
 dense_53 (Dense)            (None, 1)                 76        
                                                                 
=================================================================
Total params: 113,776
Trainable params: 113,776
Non-trainable params: 0
_________________________________________________________________
Model: ""sequential_8""
_________________________________________________________________
 Layer (type)                Output Shape              Param #   
=================================================================
 lstm_38 (LSTM)              (None, 20, 75)            23100     
                                                                 
 lstm_39 (LSTM)              (None, 20, 75)            45300     
                                                                 
 lstm_40 (LSTM)              (None, 75)                45300     
                                                                 
 dense_8 (Dense)             (None, 1)                 76        
                                                                 
=================================================================
Total params: 113,776
Trainable params: 113,776
Non-trainable params: 0
_________________________________________________________________
","Model: ""sequential_53""
_________________________________________________________________
 Layer (type)                Output Shape              Param #   
=================================================================
 lstm_274 (LSTM)             (None, 10, 75)            23100     
                                                                 
 lstm_275 (LSTM)             (None, 10, 75)            45300     
                                                                 
 lstm_276 (LSTM)             (None, 75)                45300     
                                                                 
 dense_53 (Dense)            (None, 1)                 76        
                                                                 
=================================================================
Total params: 113,776
Trainable params: 113,776
Non-trainable params: 0
_________________________________________________________________
Model: ""sequential_8""
_________________________________________________________________
 Layer (type)                Output Shape              Param #   
=================================================================
 lstm_38 (LSTM)              (None, 20, 75)            23100     
                                                                 
 lstm_39 (LSTM)              (None, 20, 75)            45300     
                                                                 
 lstm_40 (LSTM)              (None, 75)                45300     
                                                                 
 dense_8 (Dense)             (None, 1)                 76        
                                                                 
=================================================================
Total params: 113,776
Trainable params: 113,776
Non-trainable params: 0
_________________________________________________________________
Model: ""sequential_27""
_________________________________________________________________
 Layer (type)                Output Shape              Param #   
=================================================================
 lstm_148 (LSTM)             (None, 30, 125)           63500     
                                                                 
 lstm_149 (LSTM)             (None, 30, 125)           125500    
                                                                 
 lstm_150 (LSTM)             (None, 125)               125500    
                                                                 
 dense_27 (Dense)            (None, 1)                 126       
                                                                 
=================================================================
Total params: 314,626
Trainable params: 314,626
Non-trainable params: 0
_________________________________________________________________
","Model: ""sequential_53""
_________________________________________________________________
 Layer (type)                Output Shape              Param #   
=================================================================
 lstm_274 (LSTM)             (None, 10, 75)            23100     
                                                                 
 lstm_275 (LSTM)             (None, 10, 75)            45300     
                                                                 
 lstm_276 (LSTM)             (None, 75)                45300     
                                                                 
 dense_53 (Dense)            (None, 1)                 76        
                                                                 
=================================================================
Total params: 113,776
Trainable params: 113,776
Non-trainable params: 0
_________________________________________________________________
Model: ""sequential_8""
_________________________________________________________________
 Layer (type)                Output Shape              Param #   
=================================================================
 lstm_38 (LSTM)              (None, 20, 75)            23100     
                                                                 
 lstm_39 (LSTM)              (None, 20, 75)            45300     
                                                                 
 lstm_40 (LSTM)              (None, 75)                45300     
                                                                 
 dense_8 (Dense)             (None, 1)                 76        
                                                                 
=================================================================
Total params: 113,776
Trainable params: 113,776
Non-trainable params: 0
_________________________________________________________________
Model: ""sequential_27""
_________________________________________________________________
 Layer (type)                Output Shape              Param #   
=================================================================
 lstm_148 (LSTM)             (None, 30, 125)           63500     
                                                                 
 lstm_149 (LSTM)             (None, 30, 125)           125500    
                                                                 
 lstm_150 (LSTM)             (None, 125)               125500    
                                                                 
 dense_27 (Dense)            (None, 1)                 126       
                                                                 
=================================================================
Total params: 314,626
Trainable params: 314,626
Non-trainable params: 0
_________________________________________________________________
Model: ""sequential_50""
_________________________________________________________________
 Layer (type)                Output Shape              Param #   
=================================================================
 lstm_243 (LSTM)             (None, 40, 75)            23100     
                                                                 
 lstm_244 (LSTM)             (None, 40, 75)            45300     
                                                                 
 lstm_245 (LSTM)             (None, 75)                45300     
                                                                 
 dense_50 (Dense)            (None, 1)                 76        
                                                                 
=================================================================
Total params: 113,776
Trainable params: 113,776
Non-trainable params: 0
_________________________________________________________________
","Model: ""sequential_53""
_________________________________________________________________
 Layer (type)                Output Shape              Param #   
=================================================================
 lstm_274 (LSTM)             (None, 10, 75)            23100     
                                                                 
 lstm_275 (LSTM)             (None, 10, 75)            45300     
                                                                 
 lstm_276 (LSTM)             (None, 75)                45300     
                                                                 
 dense_53 (Dense)            (None, 1)                 76        
                                                                 
=================================================================
Total params: 113,776
Trainable params: 113,776
Non-trainable params: 0
_________________________________________________________________
Model: ""sequential_8""
_________________________________________________________________
 Layer (type)                Output Shape              Param #   
=================================================================
 lstm_38 (LSTM)              (None, 20, 75)            23100     
                                                                 
 lstm_39 (LSTM)              (None, 20, 75)            45300     
                                                                 
 lstm_40 (LSTM)              (None, 75)                45300     
                                                                 
 dense_8 (Dense)             (None, 1)                 76        
                                                                 
=================================================================
Total params: 113,776
Trainable params: 113,776
Non-trainable params: 0
_________________________________________________________________
Model: ""sequential_27""
_________________________________________________________________
 Layer (type)                Output Shape              Param #   
=================================================================
 lstm_148 (LSTM)             (None, 30, 125)           63500     
                                                                 
 lstm_149 (LSTM)             (None, 30, 125)           125500    
                                                                 
 lstm_150 (LSTM)             (None, 125)               125500    
                                                                 
 dense_27 (Dense)            (None, 1)                 126       
                                                                 
=================================================================
Total params: 314,626
Trainable params: 314,626
Non-trainable params: 0
_________________________________________________________________
Model: ""sequential_50""
_________________________________________________________________
 Layer (type)                Output Shape              Param #   
=================================================================
 lstm_243 (LSTM)             (None, 40, 75)            23100     
                                                                 
 lstm_244 (LSTM)             (None, 40, 75)            45300     
                                                                 
 lstm_245 (LSTM)             (None, 75)                45300     
                                                                 
 dense_50 (Dense)            (None, 1)                 76        
                                                                 
=================================================================
Total params: 113,776
Trainable params: 113,776
Non-trainable params: 0
_________________________________________________________________
Model: ""sequential_52""
_________________________________________________________________
 Layer (type)                Output Shape              Param #   
=================================================================
 lstm_248 (LSTM)             (None, 50, 75)            23100     
                                                                 
 lstm_249 (LSTM)             (None, 50, 75)            45300     
                                                                 
 lstm_250 (LSTM)             (None, 75)                45300     
                                                                 
 dense_52 (Dense)            (None, 1)                 76        
                                                                 
=================================================================
Total params: 113,776
Trainable params: 113,776
Non-trainable params: 0
_________________________________________________________________
","Model: ""sequential_53""
_________________________________________________________________
 Layer (type)                Output Shape              Param #   
=================================================================
 lstm_274 (LSTM)             (None, 10, 75)            23100     
                                                                 
 lstm_275 (LSTM)             (None, 10, 75)            45300     
                                                                 
 lstm_276 (LSTM)             (None, 75)                45300     
                                                                 
 dense_53 (Dense)            (None, 1)                 76        
                                                                 
=================================================================
Total params: 113,776
Trainable params: 113,776
Non-trainable params: 0
_________________________________________________________________
Model: ""sequential_8""
_________________________________________________________________
 Layer (type)                Output Shape              Param #   
=================================================================
 lstm_38 (LSTM)              (None, 20, 75)            23100     
                                                                 
 lstm_39 (LSTM)              (None, 20, 75)            45300     
                                                                 
 lstm_40 (LSTM)              (None, 75)                45300     
                                                                 
 dense_8 (Dense)             (None, 1)                 76        
                                                                 
=================================================================
Total params: 113,776
Trainable params: 113,776
Non-trainable params: 0
_________________________________________________________________
Model: ""sequential_27""
_________________________________________________________________
 Layer (type)                Output Shape              Param #   
=================================================================
 lstm_148 (LSTM)             (None, 30, 125)           63500     
                                                                 
 lstm_149 (LSTM)             (None, 30, 125)           125500    
                                                                 
 lstm_150 (LSTM)             (None, 125)               125500    
                                                                 
 dense_27 (Dense)            (None, 1)                 126       
                                                                 
=================================================================
Total params: 314,626
Trainable params: 314,626
Non-trainable params: 0
_________________________________________________________________
Model: ""sequential_50""
_________________________________________________________________
 Layer (type)                Output Shape              Param #   
=================================================================
 lstm_243 (LSTM)             (None, 40, 75)            23100     
                                                                 
 lstm_244 (LSTM)             (None, 40, 75)            45300     
                                                                 
 lstm_245 (LSTM)             (None, 75)                45300     
                                                                 
 dense_50 (Dense)            (None, 1)                 76        
                                                                 
=================================================================
Total params: 113,776
Trainable params: 113,776
Non-trainable params: 0
_________________________________________________________________
Model: ""sequential_52""
_________________________________________________________________
 Layer (type)                Output Shape              Param #   
=================================================================
 lstm_248 (LSTM)             (None, 50, 75)            23100     
                                                                 
 lstm_249 (LSTM)             (None, 50, 75)            45300     
                                                                 
 lstm_250 (LSTM)             (None, 75)                45300     
                                                                 
 dense_52 (Dense)            (None, 1)                 76        
                                                                 
=================================================================
Total params: 113,776
Trainable params: 113,776
Non-trainable params: 0
_________________________________________________________________
Model: ""sequential_13""
_________________________________________________________________
 Layer (type)                Output Shape              Param #   
=================================================================
 lstm_65 (LSTM)              (None, 60, 75)            23100     
                                                                 
 lstm_66 (LSTM)              (None, 60, 75)            45300     
                                                                 
 lstm_67 (LSTM)              (None, 75)                45300     
                                                                 
 dense_13 (Dense)            (None, 1)                 76        
                                                                 
=================================================================
Total params: 113,776
Trainable params: 113,776
Non-trainable params: 0
_________________________________________________________________
"
tft,"{'prediction_length': 1, 'lead_time': 0, 'input_names': ['past_target', 'past_observed_values', 'past_feat_dynamic_real', 'past_feat_dynamic_cat', 'feat_dynamic_real', 'feat_dynamic_cat', 'feat_static_real', 'feat_static_cat'], 'prediction_net': TemporalFusionTransformerPredictionNetwork(
…
